config_model
> /home/bscho/works/multi-tta/trainers/test_trainer.py(68)configure_model()
-> model.requires_grad_(False)
{Identity(), Identity(), Dropout(p=0.0, inplace=False), Linear(in_features=768, out_features=768, bias=True), VisionTransformer(
  (patch_embed): PatchEmbed(
    (proj): Conv2d(3, 768, kernel_size=(16, 16), stride=(16, 16))
    (norm): Identity()
  )
  (pos_drop): Dropout(p=0.0, inplace=False)
  (patch_drop): Identity()
  (norm_pre): Identity()
  (blocks): Sequential(
    (0): Block(
      (norm1): LayerNorm((768,), eps=1e-06, elementwise_affine=True)
      (attn): Attention(
        (qkv): Linear(in_features=768, out_features=2304, bias=True)
        (q_norm): Identity()
        (k_norm): Identity()
        (attn_drop): Dropout(p=0.0, inplace=False)
        (proj): Linear(in_features=768, out_features=768, bias=True)
        (proj_drop): Dropout(p=0.0, inplace=False)
      )
      (ls1): Identity()
      (drop_path1): Identity()
      (norm2): LayerNorm((768,), eps=1e-06, elementwise_affine=True)
      (mlp): Mlp(
        (fc1): Linear(in_features=768, out_features=3072, bias=True)
        (act): GELU(approximate='none')
        (drop1): Dropout(p=0.0, inplace=False)
        (norm): Identity()
        (fc2): Linear(in_features=3072, out_features=768, bias=True)
        (drop2): Dropout(p=0.0, inplace=False)
      )
      (ls2): Identity()
      (drop_path2): Identity()
    )
    (1): Block(
      (norm1): LayerNorm((768,), eps=1e-06, elementwise_affine=True)
      (attn): Attention(
        (qkv): Linear(in_features=768, out_features=2304, bias=True)
        (q_norm): Identity()
        (k_norm): Identity()
        (attn_drop): Dropout(p=0.0, inplace=False)
        (proj): Linear(in_features=768, out_features=768, bias=True)
        (proj_drop): Dropout(p=0.0, inplace=False)
      )
      (ls1): Identity()
      (drop_path1): Identity()
      (norm2): LayerNorm((768,), eps=1e-06, elementwise_affine=True)
      (mlp): Mlp(
        (fc1): Linear(in_features=768, out_features=3072, bias=True)
        (act): GELU(approximate='none')
        (drop1): Dropout(p=0.0, inplace=False)
        (norm): Identity()
        (fc2): Linear(in_features=3072, out_features=768, bias=True)
        (drop2): Dropout(p=0.0, inplace=False)
      )
      (ls2): Identity()
      (drop_path2): Identity()
    )
    (2): Block(
      (norm1): LayerNorm((768,), eps=1e-06, elementwise_affine=True)
      (attn): Attention(
        (qkv): Linear(in_features=768, out_features=2304, bias=True)
        (q_norm): Identity()
        (k_norm): Identity()
        (attn_drop): Dropout(p=0.0, inplace=False)
        (proj): Linear(in_features=768, out_features=768, bias=True)
        (proj_drop): Dropout(p=0.0, inplace=False)
      )
      (ls1): Identity()
      (drop_path1): Identity()
      (norm2): LayerNorm((768,), eps=1e-06, elementwise_affine=True)
      (mlp): Mlp(
        (fc1): Linear(in_features=768, out_features=3072, bias=True)
        (act): GELU(approximate='none')
        (drop1): Dropout(p=0.0, inplace=False)
        (norm): Identity()
        (fc2): Linear(in_features=3072, out_features=768, bias=True)
        (drop2): Dropout(p=0.0, inplace=False)
      )
      (ls2): Identity()
      (drop_path2): Identity()
    )
    (3): Block(
      (norm1): LayerNorm((768,), eps=1e-06, elementwise_affine=True)
      (attn): Attention(
        (qkv): Linear(in_features=768, out_features=2304, bias=True)
        (q_norm): Identity()
        (k_norm): Identity()
        (attn_drop): Dropout(p=0.0, inplace=False)
        (proj): Linear(in_features=768, out_features=768, bias=True)
        (proj_drop): Dropout(p=0.0, inplace=False)
      )
      (ls1): Identity()
      (drop_path1): Identity()
      (norm2): LayerNorm((768,), eps=1e-06, elementwise_affine=True)
      (mlp): Mlp(
        (fc1): Linear(in_features=768, out_features=3072, bias=True)
        (act): GELU(approximate='none')
        (drop1): Dropout(p=0.0, inplace=False)
        (norm): Identity()
        (fc2): Linear(in_features=3072, out_features=768, bias=True)
        (drop2): Dropout(p=0.0, inplace=False)
      )
      (ls2): Identity()
      (drop_path2): Identity()
    )
    (4): Block(
      (norm1): LayerNorm((768,), eps=1e-06, elementwise_affine=True)
      (attn): Attention(
        (qkv): Linear(in_features=768, out_features=2304, bias=True)
        (q_norm): Identity()
        (k_norm): Identity()
        (attn_drop): Dropout(p=0.0, inplace=False)
        (proj): Linear(in_features=768, out_features=768, bias=True)
        (proj_drop): Dropout(p=0.0, inplace=False)
      )
      (ls1): Identity()
      (drop_path1): Identity()
      (norm2): LayerNorm((768,), eps=1e-06, elementwise_affine=True)
      (mlp): Mlp(
        (fc1): Linear(in_features=768, out_features=3072, bias=True)
        (act): GELU(approximate='none')
        (drop1): Dropout(p=0.0, inplace=False)
        (norm): Identity()
        (fc2): Linear(in_features=3072, out_features=768, bias=True)
        (drop2): Dropout(p=0.0, inplace=False)
      )
      (ls2): Identity()
      (drop_path2): Identity()
    )
    (5): Block(
      (norm1): LayerNorm((768,), eps=1e-06, elementwise_affine=True)
      (attn): Attention(
        (qkv): Linear(in_features=768, out_features=2304, bias=True)
        (q_norm): Identity()
        (k_norm): Identity()
        (attn_drop): Dropout(p=0.0, inplace=False)
        (proj): Linear(in_features=768, out_features=768, bias=True)
        (proj_drop): Dropout(p=0.0, inplace=False)
      )
      (ls1): Identity()
      (drop_path1): Identity()
      (norm2): LayerNorm((768,), eps=1e-06, elementwise_affine=True)
      (mlp): Mlp(
        (fc1): Linear(in_features=768, out_features=3072, bias=True)
        (act): GELU(approximate='none')
        (drop1): Dropout(p=0.0, inplace=False)
        (norm): Identity()
        (fc2): Linear(in_features=3072, out_features=768, bias=True)
        (drop2): Dropout(p=0.0, inplace=False)
      )
      (ls2): Identity()
      (drop_path2): Identity()
    )
    (6): Block(
      (norm1): LayerNorm((768,), eps=1e-06, elementwise_affine=True)
      (attn): Attention(
        (qkv): Linear(in_features=768, out_features=2304, bias=True)
        (q_norm): Identity()
        (k_norm): Identity()
        (attn_drop): Dropout(p=0.0, inplace=False)
        (proj): Linear(in_features=768, out_features=768, bias=True)
        (proj_drop): Dropout(p=0.0, inplace=False)
      )
      (ls1): Identity()
      (drop_path1): Identity()
      (norm2): LayerNorm((768,), eps=1e-06, elementwise_affine=True)
      (mlp): Mlp(
        (fc1): Linear(in_features=768, out_features=3072, bias=True)
        (act): GELU(approximate='none')
        (drop1): Dropout(p=0.0, inplace=False)
        (norm): Identity()
        (fc2): Linear(in_features=3072, out_features=768, bias=True)
        (drop2): Dropout(p=0.0, inplace=False)
      )
      (ls2): Identity()
      (drop_path2): Identity()
    )
    (7): Block(
      (norm1): LayerNorm((768,), eps=1e-06, elementwise_affine=True)
      (attn): Attention(
        (qkv): Linear(in_features=768, out_features=2304, bias=True)
        (q_norm): Identity()
        (k_norm): Identity()
        (attn_drop): Dropout(p=0.0, inplace=False)
        (proj): Linear(in_features=768, out_features=768, bias=True)
        (proj_drop): Dropout(p=0.0, inplace=False)
      )
      (ls1): Identity()
      (drop_path1): Identity()
      (norm2): LayerNorm((768,), eps=1e-06, elementwise_affine=True)
      (mlp): Mlp(
        (fc1): Linear(in_features=768, out_features=3072, bias=True)
        (act): GELU(approximate='none')
        (drop1): Dropout(p=0.0, inplace=False)
        (norm): Identity()
        (fc2): Linear(in_features=3072, out_features=768, bias=True)
        (drop2): Dropout(p=0.0, inplace=False)
      )
      (ls2): Identity()
      (drop_path2): Identity()
    )
    (8): Block(
      (norm1): LayerNorm((768,), eps=1e-06, elementwise_affine=True)
      (attn): Attention(
        (qkv): Linear(in_features=768, out_features=2304, bias=True)
        (q_norm): Identity()
        (k_norm): Identity()
        (attn_drop): Dropout(p=0.0, inplace=False)
        (proj): Linear(in_features=768, out_features=768, bias=True)
        (proj_drop): Dropout(p=0.0, inplace=False)
      )
      (ls1): Identity()
      (drop_path1): Identity()
      (norm2): LayerNorm((768,), eps=1e-06, elementwise_affine=True)
      (mlp): Mlp(
        (fc1): Linear(in_features=768, out_features=3072, bias=True)
        (act): GELU(approximate='none')
        (drop1): Dropout(p=0.0, inplace=False)
        (norm): Identity()
        (fc2): Linear(in_features=3072, out_features=768, bias=True)
        (drop2): Dropout(p=0.0, inplace=False)
      )
      (ls2): Identity()
      (drop_path2): Identity()
    )
    (9): Block(
      (norm1): LayerNorm((768,), eps=1e-06, elementwise_affine=True)
      (attn): Attention(
        (qkv): Linear(in_features=768, out_features=2304, bias=True)
        (q_norm): Identity()
        (k_norm): Identity()
        (attn_drop): Dropout(p=0.0, inplace=False)
        (proj): Linear(in_features=768, out_features=768, bias=True)
        (proj_drop): Dropout(p=0.0, inplace=False)
      )
      (ls1): Identity()
      (drop_path1): Identity()
      (norm2): LayerNorm((768,), eps=1e-06, elementwise_affine=True)
      (mlp): Mlp(
        (fc1): Linear(in_features=768, out_features=3072, bias=True)
        (act): GELU(approximate='none')
        (drop1): Dropout(p=0.0, inplace=False)
        (norm): Identity()
        (fc2): Linear(in_features=3072, out_features=768, bias=True)
        (drop2): Dropout(p=0.0, inplace=False)
      )
      (ls2): Identity()
      (drop_path2): Identity()
    )
    (10): Block(
      (norm1): LayerNorm((768,), eps=1e-06, elementwise_affine=True)
      (attn): Attention(
        (qkv): Linear(in_features=768, out_features=2304, bias=True)
        (q_norm): Identity()
        (k_norm): Identity()
        (attn_drop): Dropout(p=0.0, inplace=False)
        (proj): Linear(in_features=768, out_features=768, bias=True)
        (proj_drop): Dropout(p=0.0, inplace=False)
      )
      (ls1): Identity()
      (drop_path1): Identity()
      (norm2): LayerNorm((768,), eps=1e-06, elementwise_affine=True)
      (mlp): Mlp(
        (fc1): Linear(in_features=768, out_features=3072, bias=True)
        (act): GELU(approximate='none')
        (drop1): Dropout(p=0.0, inplace=False)
        (norm): Identity()
        (fc2): Linear(in_features=3072, out_features=768, bias=True)
        (drop2): Dropout(p=0.0, inplace=False)
      )
      (ls2): Identity()
      (drop_path2): Identity()
    )
    (11): Block(
      (norm1): LayerNorm((768,), eps=1e-06, elementwise_affine=True)
      (attn): Attention(
        (qkv): Linear(in_features=768, out_features=2304, bias=True)
        (q_norm): Identity()
        (k_norm): Identity()
        (attn_drop): Dropout(p=0.0, inplace=False)
        (proj): Linear(in_features=768, out_features=768, bias=True)
        (proj_drop): Dropout(p=0.0, inplace=False)
      )
      (ls1): Identity()
      (drop_path1): Identity()
      (norm2): LayerNorm((768,), eps=1e-06, elementwise_affine=True)
      (mlp): Mlp(
        (fc1): Linear(in_features=768, out_features=3072, bias=True)
        (act): GELU(approximate='none')
        (drop1): Dropout(p=0.0, inplace=False)
        (norm): Identity()
        (fc2): Linear(in_features=3072, out_features=768, bias=True)
        (drop2): Dropout(p=0.0, inplace=False)
      )
      (ls2): Identity()
      (drop_path2): Identity()
    )
  )
  (norm): LayerNorm((768,), eps=1e-06, elementwise_affine=True)
  (fc_norm): Identity()
  (head_drop): Dropout(p=0.0, inplace=False)
  (head): Linear(in_features=768, out_features=1000, bias=True)
), Dropout(p=0.0, inplace=False), Identity(), Identity(), Linear(in_features=768, out_features=2304, bias=True), Attention(
  (qkv): Linear(in_features=768, out_features=2304, bias=True)
  (q_norm): Identity()
  (k_norm): Identity()
  (attn_drop): Dropout(p=0.0, inplace=False)
  (proj): Linear(in_features=768, out_features=768, bias=True)
  (proj_drop): Dropout(p=0.0, inplace=False)
), Linear(in_features=768, out_features=2304, bias=True), LayerNorm((768,), eps=1e-06, elementwise_affine=True), Block(
  (norm1): LayerNorm((768,), eps=1e-06, elementwise_affine=True)
  (attn): Attention(
    (qkv): Linear(in_features=768, out_features=2304, bias=True)
    (q_norm): Identity()
    (k_norm): Identity()
    (attn_drop): Dropout(p=0.0, inplace=False)
    (proj): Linear(in_features=768, out_features=768, bias=True)
    (proj_drop): Dropout(p=0.0, inplace=False)
  )
  (ls1): Identity()
  (drop_path1): Identity()
  (norm2): LayerNorm((768,), eps=1e-06, elementwise_affine=True)
  (mlp): Mlp(
    (fc1): Linear(in_features=768, out_features=3072, bias=True)
    (act): GELU(approximate='none')
    (drop1): Dropout(p=0.0, inplace=False)
    (norm): Identity()
    (fc2): Linear(in_features=3072, out_features=768, bias=True)
    (drop2): Dropout(p=0.0, inplace=False)
  )
  (ls2): Identity()
  (drop_path2): Identity()
), Identity(), Identity(), LayerNorm((768,), eps=1e-06, elementwise_affine=True), Dropout(p=0.0, inplace=False), Linear(in_features=3072, out_features=768, bias=True), Identity(), Dropout(p=0.0, inplace=False), Linear(in_features=768, out_features=3072, bias=True), Identity(), GELU(approximate='none'), Linear(in_features=768, out_features=3072, bias=True), Identity(), Mlp(
  (fc1): Linear(in_features=768, out_features=3072, bias=True)
  (act): GELU(approximate='none')
  (drop1): Dropout(p=0.0, inplace=False)
  (norm): Identity()
  (fc2): Linear(in_features=3072, out_features=768, bias=True)
  (drop2): Dropout(p=0.0, inplace=False)
), LayerNorm((768,), eps=1e-06, elementwise_affine=True), Identity(), Identity(), Dropout(p=0.0, inplace=False), Linear(in_features=768, out_features=768, bias=True), Dropout(p=0.0, inplace=False), Attention(
  (qkv): Linear(in_features=768, out_features=2304, bias=True)
  (q_norm): Identity()
  (k_norm): Identity()
  (attn_drop): Dropout(p=0.0, inplace=False)
  (proj): Linear(in_features=768, out_features=768, bias=True)
  (proj_drop): Dropout(p=0.0, inplace=False)
), Identity(), Identity(), Linear(in_features=768, out_features=2304, bias=True), Attention(
  (qkv): Linear(in_features=768, out_features=2304, bias=True)
  (q_norm): Identity()
  (k_norm): Identity()
  (attn_drop): Dropout(p=0.0, inplace=False)
  (proj): Linear(in_features=768, out_features=768, bias=True)
  (proj_drop): Dropout(p=0.0, inplace=False)
), LayerNorm((768,), eps=1e-06, elementwise_affine=True), Identity(), Block(
  (norm1): LayerNorm((768,), eps=1e-06, elementwise_affine=True)
  (attn): Attention(
    (qkv): Linear(in_features=768, out_features=2304, bias=True)
    (q_norm): Identity()
    (k_norm): Identity()
    (attn_drop): Dropout(p=0.0, inplace=False)
    (proj): Linear(in_features=768, out_features=768, bias=True)
    (proj_drop): Dropout(p=0.0, inplace=False)
  )
  (ls1): Identity()
  (drop_path1): Identity()
  (norm2): LayerNorm((768,), eps=1e-06, elementwise_affine=True)
  (mlp): Mlp(
    (fc1): Linear(in_features=768, out_features=3072, bias=True)
    (act): GELU(approximate='none')
    (drop1): Dropout(p=0.0, inplace=False)
    (norm): Identity()
    (fc2): Linear(in_features=3072, out_features=768, bias=True)
    (drop2): Dropout(p=0.0, inplace=False)
  )
  (ls2): Identity()
  (drop_path2): Identity()
), LayerNorm((768,), eps=1e-06, elementwise_affine=True), Identity(), Dropout(p=0.0, inplace=False), Identity(), Dropout(p=0.0, inplace=False), Linear(in_features=3072, out_features=768, bias=True), LayerNorm((768,), eps=1e-06, elementwise_affine=True), Identity(), Attention(
  (qkv): Linear(in_features=768, out_features=2304, bias=True)
  (q_norm): Identity()
  (k_norm): Identity()
  (attn_drop): Dropout(p=0.0, inplace=False)
  (proj): Linear(in_features=768, out_features=768, bias=True)
  (proj_drop): Dropout(p=0.0, inplace=False)
), Linear(in_features=3072, out_features=768, bias=True), Dropout(p=0.0, inplace=False), Identity(), GELU(approximate='none'), Identity(), Mlp(
  (fc1): Linear(in_features=768, out_features=3072, bias=True)
  (act): GELU(approximate='none')
  (drop1): Dropout(p=0.0, inplace=False)
  (norm): Identity()
  (fc2): Linear(in_features=3072, out_features=768, bias=True)
  (drop2): Dropout(p=0.0, inplace=False)
), Linear(in_features=768, out_features=3072, bias=True), Dropout(p=0.0, inplace=False), Identity(), LayerNorm((768,), eps=1e-06, elementwise_affine=True), Conv2d(3, 768, kernel_size=(16, 16), stride=(16, 16)), Mlp(
  (fc1): Linear(in_features=768, out_features=3072, bias=True)
  (act): GELU(approximate='none')
  (drop1): Dropout(p=0.0, inplace=False)
  (norm): Identity()
  (fc2): Linear(in_features=3072, out_features=768, bias=True)
  (drop2): Dropout(p=0.0, inplace=False)
), LayerNorm((768,), eps=1e-06, elementwise_affine=True), Identity(), Identity(), Identity(), Dropout(p=0.0, inplace=False), Linear(in_features=768, out_features=768, bias=True), GELU(approximate='none'), GELU(approximate='none'), Dropout(p=0.0, inplace=False), Dropout(p=0.0, inplace=False), Mlp(
  (fc1): Linear(in_features=768, out_features=3072, bias=True)
  (act): GELU(approximate='none')
  (drop1): Dropout(p=0.0, inplace=False)
  (norm): Identity()
  (fc2): Linear(in_features=3072, out_features=768, bias=True)
  (drop2): Dropout(p=0.0, inplace=False)
), Identity(), Linear(in_features=768, out_features=3072, bias=True), Identity(), Linear(in_features=768, out_features=2304, bias=True), Attention(
  (qkv): Linear(in_features=768, out_features=2304, bias=True)
  (q_norm): Identity()
  (k_norm): Identity()
  (attn_drop): Dropout(p=0.0, inplace=False)
  (proj): Linear(in_features=768, out_features=768, bias=True)
  (proj_drop): Dropout(p=0.0, inplace=False)
), LayerNorm((768,), eps=1e-06, elementwise_affine=True), Linear(in_features=768, out_features=1000, bias=True), Block(
  (norm1): LayerNorm((768,), eps=1e-06, elementwise_affine=True)
  (attn): Attention(
    (qkv): Linear(in_features=768, out_features=2304, bias=True)
    (q_norm): Identity()
    (k_norm): Identity()
    (attn_drop): Dropout(p=0.0, inplace=False)
    (proj): Linear(in_features=768, out_features=768, bias=True)
    (proj_drop): Dropout(p=0.0, inplace=False)
  )
  (ls1): Identity()
  (drop_path1): Identity()
  (norm2): LayerNorm((768,), eps=1e-06, elementwise_affine=True)
  (mlp): Mlp(
    (fc1): Linear(in_features=768, out_features=3072, bias=True)
    (act): GELU(approximate='none')
    (drop1): Dropout(p=0.0, inplace=False)
    (norm): Identity()
    (fc2): Linear(in_features=3072, out_features=768, bias=True)
    (drop2): Dropout(p=0.0, inplace=False)
  )
  (ls2): Identity()
  (drop_path2): Identity()
), Dropout(p=0.0, inplace=False), Identity(), Dropout(p=0.0, inplace=False), Linear(in_features=3072, out_features=768, bias=True), Mlp(
  (fc1): Linear(in_features=768, out_features=3072, bias=True)
  (act): GELU(approximate='none')
  (drop1): Dropout(p=0.0, inplace=False)
  (norm): Identity()
  (fc2): Linear(in_features=3072, out_features=768, bias=True)
  (drop2): Dropout(p=0.0, inplace=False)
), Identity(), Dropout(p=0.0, inplace=False), Block(
  (norm1): LayerNorm((768,), eps=1e-06, elementwise_affine=True)
  (attn): Attention(
    (qkv): Linear(in_features=768, out_features=2304, bias=True)
    (q_norm): Identity()
    (k_norm): Identity()
    (attn_drop): Dropout(p=0.0, inplace=False)
    (proj): Linear(in_features=768, out_features=768, bias=True)
    (proj_drop): Dropout(p=0.0, inplace=False)
  )
  (ls1): Identity()
  (drop_path1): Identity()
  (norm2): LayerNorm((768,), eps=1e-06, elementwise_affine=True)
  (mlp): Mlp(
    (fc1): Linear(in_features=768, out_features=3072, bias=True)
    (act): GELU(approximate='none')
    (drop1): Dropout(p=0.0, inplace=False)
    (norm): Identity()
    (fc2): Linear(in_features=3072, out_features=768, bias=True)
    (drop2): Dropout(p=0.0, inplace=False)
  )
  (ls2): Identity()
  (drop_path2): Identity()
), GELU(approximate='none'), Linear(in_features=768, out_features=3072, bias=True), Dropout(p=0.0, inplace=False), Identity(), Identity(), Linear(in_features=768, out_features=3072, bias=True), Mlp(
  (fc1): Linear(in_features=768, out_features=3072, bias=True)
  (act): GELU(approximate='none')
  (drop1): Dropout(p=0.0, inplace=False)
  (norm): Identity()
  (fc2): Linear(in_features=3072, out_features=768, bias=True)
  (drop2): Dropout(p=0.0, inplace=False)
), Identity(), Dropout(p=0.0, inplace=False), LayerNorm((768,), eps=1e-06, elementwise_affine=True), Identity(), Identity(), Mlp(
  (fc1): Linear(in_features=768, out_features=3072, bias=True)
  (act): GELU(approximate='none')
  (drop1): Dropout(p=0.0, inplace=False)
  (norm): Identity()
  (fc2): Linear(in_features=3072, out_features=768, bias=True)
  (drop2): Dropout(p=0.0, inplace=False)
), LayerNorm((768,), eps=1e-06, elementwise_affine=True), Identity(), Dropout(p=0.0, inplace=False), Identity(), Identity(), Dropout(p=0.0, inplace=False), Linear(in_features=768, out_features=768, bias=True), Dropout(p=0.0, inplace=False), Linear(in_features=3072, out_features=768, bias=True), PatchEmbed(
  (proj): Conv2d(3, 768, kernel_size=(16, 16), stride=(16, 16))
  (norm): Identity()
), Identity(), Identity(), GELU(approximate='none'), Identity(), Dropout(p=0.0, inplace=False), Identity(), GELU(approximate='none'), Linear(in_features=768, out_features=2304, bias=True), Attention(
  (qkv): Linear(in_features=768, out_features=2304, bias=True)
  (q_norm): Identity()
  (k_norm): Identity()
  (attn_drop): Dropout(p=0.0, inplace=False)
  (proj): Linear(in_features=768, out_features=768, bias=True)
  (proj_drop): Dropout(p=0.0, inplace=False)
), LayerNorm((768,), eps=1e-06, elementwise_affine=True), Linear(in_features=768, out_features=3072, bias=True), Identity(), Identity(), LayerNorm((768,), eps=1e-06, elementwise_affine=True), Linear(in_features=768, out_features=3072, bias=True), Block(
  (norm1): LayerNorm((768,), eps=1e-06, elementwise_affine=True)
  (attn): Attention(
    (qkv): Linear(in_features=768, out_features=2304, bias=True)
    (q_norm): Identity()
    (k_norm): Identity()
    (attn_drop): Dropout(p=0.0, inplace=False)
    (proj): Linear(in_features=768, out_features=768, bias=True)
    (proj_drop): Dropout(p=0.0, inplace=False)
  )
  (ls1): Identity()
  (drop_path1): Identity()
  (norm2): LayerNorm((768,), eps=1e-06, elementwise_affine=True)
  (mlp): Mlp(
    (fc1): Linear(in_features=768, out_features=3072, bias=True)
    (act): GELU(approximate='none')
    (drop1): Dropout(p=0.0, inplace=False)
    (norm): Identity()
    (fc2): Linear(in_features=3072, out_features=768, bias=True)
    (drop2): Dropout(p=0.0, inplace=False)
  )
  (ls2): Identity()
  (drop_path2): Identity()
), Dropout(p=0.0, inplace=False), Mlp(
  (fc1): Linear(in_features=768, out_features=3072, bias=True)
  (act): GELU(approximate='none')
  (drop1): Dropout(p=0.0, inplace=False)
  (norm): Identity()
  (fc2): Linear(in_features=3072, out_features=768, bias=True)
  (drop2): Dropout(p=0.0, inplace=False)
), Linear(in_features=768, out_features=3072, bias=True), LayerNorm((768,), eps=1e-06, elementwise_affine=True), Identity(), Identity(), Dropout(p=0.0, inplace=False), Block(
  (norm1): LayerNorm((768,), eps=1e-06, elementwise_affine=True)
  (attn): Attention(
    (qkv): Linear(in_features=768, out_features=2304, bias=True)
    (q_norm): Identity()
    (k_norm): Identity()
    (attn_drop): Dropout(p=0.0, inplace=False)
    (proj): Linear(in_features=768, out_features=768, bias=True)
    (proj_drop): Dropout(p=0.0, inplace=False)
  )
  (ls1): Identity()
  (drop_path1): Identity()
  (norm2): LayerNorm((768,), eps=1e-06, elementwise_affine=True)
  (mlp): Mlp(
    (fc1): Linear(in_features=768, out_features=3072, bias=True)
    (act): GELU(approximate='none')
    (drop1): Dropout(p=0.0, inplace=False)
    (norm): Identity()
    (fc2): Linear(in_features=3072, out_features=768, bias=True)
    (drop2): Dropout(p=0.0, inplace=False)
  )
  (ls2): Identity()
  (drop_path2): Identity()
), Identity(), Linear(in_features=768, out_features=768, bias=True), Identity(), Linear(in_features=3072, out_features=768, bias=True), Identity(), Dropout(p=0.0, inplace=False), Identity(), Identity(), Identity(), Dropout(p=0.0, inplace=False), Identity(), Dropout(p=0.0, inplace=False), Identity(), GELU(approximate='none'), Dropout(p=0.0, inplace=False), Block(
  (norm1): LayerNorm((768,), eps=1e-06, elementwise_affine=True)
  (attn): Attention(
    (qkv): Linear(in_features=768, out_features=2304, bias=True)
    (q_norm): Identity()
    (k_norm): Identity()
    (attn_drop): Dropout(p=0.0, inplace=False)
    (proj): Linear(in_features=768, out_features=768, bias=True)
    (proj_drop): Dropout(p=0.0, inplace=False)
  )
  (ls1): Identity()
  (drop_path1): Identity()
  (norm2): LayerNorm((768,), eps=1e-06, elementwise_affine=True)
  (mlp): Mlp(
    (fc1): Linear(in_features=768, out_features=3072, bias=True)
    (act): GELU(approximate='none')
    (drop1): Dropout(p=0.0, inplace=False)
    (norm): Identity()
    (fc2): Linear(in_features=3072, out_features=768, bias=True)
    (drop2): Dropout(p=0.0, inplace=False)
  )
  (ls2): Identity()
  (drop_path2): Identity()
), Linear(in_features=768, out_features=768, bias=True), Dropout(p=0.0, inplace=False), Linear(in_features=768, out_features=768, bias=True), Dropout(p=0.0, inplace=False), GELU(approximate='none'), Identity(), Identity(), Dropout(p=0.0, inplace=False), Mlp(
  (fc1): Linear(in_features=768, out_features=3072, bias=True)
  (act): GELU(approximate='none')
  (drop1): Dropout(p=0.0, inplace=False)
  (norm): Identity()
  (fc2): Linear(in_features=3072, out_features=768, bias=True)
  (drop2): Dropout(p=0.0, inplace=False)
), Identity(), Attention(
  (qkv): Linear(in_features=768, out_features=2304, bias=True)
  (q_norm): Identity()
  (k_norm): Identity()
  (attn_drop): Dropout(p=0.0, inplace=False)
  (proj): Linear(in_features=768, out_features=768, bias=True)
  (proj_drop): Dropout(p=0.0, inplace=False)
), Linear(in_features=768, out_features=768, bias=True), Linear(in_features=768, out_features=2304, bias=True), Linear(in_features=3072, out_features=768, bias=True), Identity(), Attention(
  (qkv): Linear(in_features=768, out_features=2304, bias=True)
  (q_norm): Identity()
  (k_norm): Identity()
  (attn_drop): Dropout(p=0.0, inplace=False)
  (proj): Linear(in_features=768, out_features=768, bias=True)
  (proj_drop): Dropout(p=0.0, inplace=False)
), Identity(), LayerNorm((768,), eps=1e-06, elementwise_affine=True), Linear(in_features=768, out_features=2304, bias=True), Linear(in_features=768, out_features=2304, bias=True), Identity(), Block(
  (norm1): LayerNorm((768,), eps=1e-06, elementwise_affine=True)
  (attn): Attention(
    (qkv): Linear(in_features=768, out_features=2304, bias=True)
    (q_norm): Identity()
    (k_norm): Identity()
    (attn_drop): Dropout(p=0.0, inplace=False)
    (proj): Linear(in_features=768, out_features=768, bias=True)
    (proj_drop): Dropout(p=0.0, inplace=False)
  )
  (ls1): Identity()
  (drop_path1): Identity()
  (norm2): LayerNorm((768,), eps=1e-06, elementwise_affine=True)
  (mlp): Mlp(
    (fc1): Linear(in_features=768, out_features=3072, bias=True)
    (act): GELU(approximate='none')
    (drop1): Dropout(p=0.0, inplace=False)
    (norm): Identity()
    (fc2): Linear(in_features=3072, out_features=768, bias=True)
    (drop2): Dropout(p=0.0, inplace=False)
  )
  (ls2): Identity()
  (drop_path2): Identity()
), LayerNorm((768,), eps=1e-06, elementwise_affine=True), Identity(), Dropout(p=0.0, inplace=False), Linear(in_features=3072, out_features=768, bias=True), LayerNorm((768,), eps=1e-06, elementwise_affine=True), Dropout(p=0.0, inplace=False), Linear(in_features=768, out_features=2304, bias=True), Dropout(p=0.0, inplace=False), Linear(in_features=3072, out_features=768, bias=True), Mlp(
  (fc1): Linear(in_features=768, out_features=3072, bias=True)
  (act): GELU(approximate='none')
  (drop1): Dropout(p=0.0, inplace=False)
  (norm): Identity()
  (fc2): Linear(in_features=3072, out_features=768, bias=True)
  (drop2): Dropout(p=0.0, inplace=False)
), Dropout(p=0.0, inplace=False), Identity(), Identity(), Identity(), Dropout(p=0.0, inplace=False), Identity(), Dropout(p=0.0, inplace=False), Identity(), Dropout(p=0.0, inplace=False), LayerNorm((768,), eps=1e-06, elementwise_affine=True), GELU(approximate='none'), GELU(approximate='none'), Identity(), Attention(
  (qkv): Linear(in_features=768, out_features=2304, bias=True)
  (q_norm): Identity()
  (k_norm): Identity()
  (attn_drop): Dropout(p=0.0, inplace=False)
  (proj): Linear(in_features=768, out_features=768, bias=True)
  (proj_drop): Dropout(p=0.0, inplace=False)
), Linear(in_features=768, out_features=3072, bias=True), Dropout(p=0.0, inplace=False), Linear(in_features=768, out_features=2304, bias=True), Identity(), Linear(in_features=768, out_features=768, bias=True), Identity(), Identity(), Linear(in_features=3072, out_features=768, bias=True), Mlp(
  (fc1): Linear(in_features=768, out_features=3072, bias=True)
  (act): GELU(approximate='none')
  (drop1): Dropout(p=0.0, inplace=False)
  (norm): Identity()
  (fc2): Linear(in_features=3072, out_features=768, bias=True)
  (drop2): Dropout(p=0.0, inplace=False)
), Dropout(p=0.0, inplace=False), LayerNorm((768,), eps=1e-06, elementwise_affine=True), Identity(), LayerNorm((768,), eps=1e-06, elementwise_affine=True), Linear(in_features=768, out_features=3072, bias=True), LayerNorm((768,), eps=1e-06, elementwise_affine=True), Identity(), Identity(), Attention(
  (qkv): Linear(in_features=768, out_features=2304, bias=True)
  (q_norm): Identity()
  (k_norm): Identity()
  (attn_drop): Dropout(p=0.0, inplace=False)
  (proj): Linear(in_features=768, out_features=768, bias=True)
  (proj_drop): Dropout(p=0.0, inplace=False)
), Identity(), LayerNorm((768,), eps=1e-06, elementwise_affine=True), Identity(), Identity(), Dropout(p=0.0, inplace=False), Identity(), Dropout(p=0.0, inplace=False), Block(
  (norm1): LayerNorm((768,), eps=1e-06, elementwise_affine=True)
  (attn): Attention(
    (qkv): Linear(in_features=768, out_features=2304, bias=True)
    (q_norm): Identity()
    (k_norm): Identity()
    (attn_drop): Dropout(p=0.0, inplace=False)
    (proj): Linear(in_features=768, out_features=768, bias=True)
    (proj_drop): Dropout(p=0.0, inplace=False)
  )
  (ls1): Identity()
  (drop_path1): Identity()
  (norm2): LayerNorm((768,), eps=1e-06, elementwise_affine=True)
  (mlp): Mlp(
    (fc1): Linear(in_features=768, out_features=3072, bias=True)
    (act): GELU(approximate='none')
    (drop1): Dropout(p=0.0, inplace=False)
    (norm): Identity()
    (fc2): Linear(in_features=3072, out_features=768, bias=True)
    (drop2): Dropout(p=0.0, inplace=False)
  )
  (ls2): Identity()
  (drop_path2): Identity()
), Linear(in_features=768, out_features=3072, bias=True), Linear(in_features=768, out_features=768, bias=True), Mlp(
  (fc1): Linear(in_features=768, out_features=3072, bias=True)
  (act): GELU(approximate='none')
  (drop1): Dropout(p=0.0, inplace=False)
  (norm): Identity()
  (fc2): Linear(in_features=3072, out_features=768, bias=True)
  (drop2): Dropout(p=0.0, inplace=False)
), Linear(in_features=768, out_features=768, bias=True), Dropout(p=0.0, inplace=False), Identity(), LayerNorm((768,), eps=1e-06, elementwise_affine=True), GELU(approximate='none'), Dropout(p=0.0, inplace=False), Identity(), Identity(), Identity(), Identity(), Identity(), Dropout(p=0.0, inplace=False), LayerNorm((768,), eps=1e-06, elementwise_affine=True), Dropout(p=0.0, inplace=False), Linear(in_features=768, out_features=2304, bias=True), Identity(), Identity(), Attention(
  (qkv): Linear(in_features=768, out_features=2304, bias=True)
  (q_norm): Identity()
  (k_norm): Identity()
  (attn_drop): Dropout(p=0.0, inplace=False)
  (proj): Linear(in_features=768, out_features=768, bias=True)
  (proj_drop): Dropout(p=0.0, inplace=False)
), Dropout(p=0.0, inplace=False), Identity(), Identity(), LayerNorm((768,), eps=1e-06, elementwise_affine=True), Dropout(p=0.0, inplace=False), Block(
  (norm1): LayerNorm((768,), eps=1e-06, elementwise_affine=True)
  (attn): Attention(
    (qkv): Linear(in_features=768, out_features=2304, bias=True)
    (q_norm): Identity()
    (k_norm): Identity()
    (attn_drop): Dropout(p=0.0, inplace=False)
    (proj): Linear(in_features=768, out_features=768, bias=True)
    (proj_drop): Dropout(p=0.0, inplace=False)
  )
  (ls1): Identity()
  (drop_path1): Identity()
  (norm2): LayerNorm((768,), eps=1e-06, elementwise_affine=True)
  (mlp): Mlp(
    (fc1): Linear(in_features=768, out_features=3072, bias=True)
    (act): GELU(approximate='none')
    (drop1): Dropout(p=0.0, inplace=False)
    (norm): Identity()
    (fc2): Linear(in_features=3072, out_features=768, bias=True)
    (drop2): Dropout(p=0.0, inplace=False)
  )
  (ls2): Identity()
  (drop_path2): Identity()
), Block(
  (norm1): LayerNorm((768,), eps=1e-06, elementwise_affine=True)
  (attn): Attention(
    (qkv): Linear(in_features=768, out_features=2304, bias=True)
    (q_norm): Identity()
    (k_norm): Identity()
    (attn_drop): Dropout(p=0.0, inplace=False)
    (proj): Linear(in_features=768, out_features=768, bias=True)
    (proj_drop): Dropout(p=0.0, inplace=False)
  )
  (ls1): Identity()
  (drop_path1): Identity()
  (norm2): LayerNorm((768,), eps=1e-06, elementwise_affine=True)
  (mlp): Mlp(
    (fc1): Linear(in_features=768, out_features=3072, bias=True)
    (act): GELU(approximate='none')
    (drop1): Dropout(p=0.0, inplace=False)
    (norm): Identity()
    (fc2): Linear(in_features=3072, out_features=768, bias=True)
    (drop2): Dropout(p=0.0, inplace=False)
  )
  (ls2): Identity()
  (drop_path2): Identity()
), Linear(in_features=768, out_features=768, bias=True), Identity(), Linear(in_features=768, out_features=2304, bias=True), Linear(in_features=3072, out_features=768, bias=True), Dropout(p=0.0, inplace=False), Block(
  (norm1): LayerNorm((768,), eps=1e-06, elementwise_affine=True)
  (attn): Attention(
    (qkv): Linear(in_features=768, out_features=2304, bias=True)
    (q_norm): Identity()
    (k_norm): Identity()
    (attn_drop): Dropout(p=0.0, inplace=False)
    (proj): Linear(in_features=768, out_features=768, bias=True)
    (proj_drop): Dropout(p=0.0, inplace=False)
  )
  (ls1): Identity()
  (drop_path1): Identity()
  (norm2): LayerNorm((768,), eps=1e-06, elementwise_affine=True)
  (mlp): Mlp(
    (fc1): Linear(in_features=768, out_features=3072, bias=True)
    (act): GELU(approximate='none')
    (drop1): Dropout(p=0.0, inplace=False)
    (norm): Identity()
    (fc2): Linear(in_features=3072, out_features=768, bias=True)
    (drop2): Dropout(p=0.0, inplace=False)
  )
  (ls2): Identity()
  (drop_path2): Identity()
), Identity(), Linear(in_features=3072, out_features=768, bias=True), Attention(
  (qkv): Linear(in_features=768, out_features=2304, bias=True)
  (q_norm): Identity()
  (k_norm): Identity()
  (attn_drop): Dropout(p=0.0, inplace=False)
  (proj): Linear(in_features=768, out_features=768, bias=True)
  (proj_drop): Dropout(p=0.0, inplace=False)
), Identity(), Sequential(
  (0): Block(
    (norm1): LayerNorm((768,), eps=1e-06, elementwise_affine=True)
    (attn): Attention(
      (qkv): Linear(in_features=768, out_features=2304, bias=True)
      (q_norm): Identity()
      (k_norm): Identity()
      (attn_drop): Dropout(p=0.0, inplace=False)
      (proj): Linear(in_features=768, out_features=768, bias=True)
      (proj_drop): Dropout(p=0.0, inplace=False)
    )
    (ls1): Identity()
    (drop_path1): Identity()
    (norm2): LayerNorm((768,), eps=1e-06, elementwise_affine=True)
    (mlp): Mlp(
      (fc1): Linear(in_features=768, out_features=3072, bias=True)
      (act): GELU(approximate='none')
      (drop1): Dropout(p=0.0, inplace=False)
      (norm): Identity()
      (fc2): Linear(in_features=3072, out_features=768, bias=True)
      (drop2): Dropout(p=0.0, inplace=False)
    )
    (ls2): Identity()
    (drop_path2): Identity()
  )
  (1): Block(
    (norm1): LayerNorm((768,), eps=1e-06, elementwise_affine=True)
    (attn): Attention(
      (qkv): Linear(in_features=768, out_features=2304, bias=True)
      (q_norm): Identity()
      (k_norm): Identity()
      (attn_drop): Dropout(p=0.0, inplace=False)
      (proj): Linear(in_features=768, out_features=768, bias=True)
      (proj_drop): Dropout(p=0.0, inplace=False)
    )
    (ls1): Identity()
    (drop_path1): Identity()
    (norm2): LayerNorm((768,), eps=1e-06, elementwise_affine=True)
    (mlp): Mlp(
      (fc1): Linear(in_features=768, out_features=3072, bias=True)
      (act): GELU(approximate='none')
      (drop1): Dropout(p=0.0, inplace=False)
      (norm): Identity()
      (fc2): Linear(in_features=3072, out_features=768, bias=True)
      (drop2): Dropout(p=0.0, inplace=False)
    )
    (ls2): Identity()
    (drop_path2): Identity()
  )
  (2): Block(
    (norm1): LayerNorm((768,), eps=1e-06, elementwise_affine=True)
    (attn): Attention(
      (qkv): Linear(in_features=768, out_features=2304, bias=True)
      (q_norm): Identity()
      (k_norm): Identity()
      (attn_drop): Dropout(p=0.0, inplace=False)
      (proj): Linear(in_features=768, out_features=768, bias=True)
      (proj_drop): Dropout(p=0.0, inplace=False)
    )
    (ls1): Identity()
    (drop_path1): Identity()
    (norm2): LayerNorm((768,), eps=1e-06, elementwise_affine=True)
    (mlp): Mlp(
      (fc1): Linear(in_features=768, out_features=3072, bias=True)
      (act): GELU(approximate='none')
      (drop1): Dropout(p=0.0, inplace=False)
      (norm): Identity()
      (fc2): Linear(in_features=3072, out_features=768, bias=True)
      (drop2): Dropout(p=0.0, inplace=False)
    )
    (ls2): Identity()
    (drop_path2): Identity()
  )
  (3): Block(
    (norm1): LayerNorm((768,), eps=1e-06, elementwise_affine=True)
    (attn): Attention(
      (qkv): Linear(in_features=768, out_features=2304, bias=True)
      (q_norm): Identity()
      (k_norm): Identity()
      (attn_drop): Dropout(p=0.0, inplace=False)
      (proj): Linear(in_features=768, out_features=768, bias=True)
      (proj_drop): Dropout(p=0.0, inplace=False)
    )
    (ls1): Identity()
    (drop_path1): Identity()
    (norm2): LayerNorm((768,), eps=1e-06, elementwise_affine=True)
    (mlp): Mlp(
      (fc1): Linear(in_features=768, out_features=3072, bias=True)
      (act): GELU(approximate='none')
      (drop1): Dropout(p=0.0, inplace=False)
      (norm): Identity()
      (fc2): Linear(in_features=3072, out_features=768, bias=True)
      (drop2): Dropout(p=0.0, inplace=False)
    )
    (ls2): Identity()
    (drop_path2): Identity()
  )
  (4): Block(
    (norm1): LayerNorm((768,), eps=1e-06, elementwise_affine=True)
    (attn): Attention(
      (qkv): Linear(in_features=768, out_features=2304, bias=True)
      (q_norm): Identity()
      (k_norm): Identity()
      (attn_drop): Dropout(p=0.0, inplace=False)
      (proj): Linear(in_features=768, out_features=768, bias=True)
      (proj_drop): Dropout(p=0.0, inplace=False)
    )
    (ls1): Identity()
    (drop_path1): Identity()
    (norm2): LayerNorm((768,), eps=1e-06, elementwise_affine=True)
    (mlp): Mlp(
      (fc1): Linear(in_features=768, out_features=3072, bias=True)
      (act): GELU(approximate='none')
      (drop1): Dropout(p=0.0, inplace=False)
      (norm): Identity()
      (fc2): Linear(in_features=3072, out_features=768, bias=True)
      (drop2): Dropout(p=0.0, inplace=False)
    )
    (ls2): Identity()
    (drop_path2): Identity()
  )
  (5): Block(
    (norm1): LayerNorm((768,), eps=1e-06, elementwise_affine=True)
    (attn): Attention(
      (qkv): Linear(in_features=768, out_features=2304, bias=True)
      (q_norm): Identity()
      (k_norm): Identity()
      (attn_drop): Dropout(p=0.0, inplace=False)
      (proj): Linear(in_features=768, out_features=768, bias=True)
      (proj_drop): Dropout(p=0.0, inplace=False)
    )
    (ls1): Identity()
    (drop_path1): Identity()
    (norm2): LayerNorm((768,), eps=1e-06, elementwise_affine=True)
    (mlp): Mlp(
      (fc1): Linear(in_features=768, out_features=3072, bias=True)
      (act): GELU(approximate='none')
      (drop1): Dropout(p=0.0, inplace=False)
      (norm): Identity()
      (fc2): Linear(in_features=3072, out_features=768, bias=True)
      (drop2): Dropout(p=0.0, inplace=False)
    )
    (ls2): Identity()
    (drop_path2): Identity()
  )
  (6): Block(
    (norm1): LayerNorm((768,), eps=1e-06, elementwise_affine=True)
    (attn): Attention(
      (qkv): Linear(in_features=768, out_features=2304, bias=True)
      (q_norm): Identity()
      (k_norm): Identity()
      (attn_drop): Dropout(p=0.0, inplace=False)
      (proj): Linear(in_features=768, out_features=768, bias=True)
      (proj_drop): Dropout(p=0.0, inplace=False)
    )
    (ls1): Identity()
    (drop_path1): Identity()
    (norm2): LayerNorm((768,), eps=1e-06, elementwise_affine=True)
    (mlp): Mlp(
      (fc1): Linear(in_features=768, out_features=3072, bias=True)
      (act): GELU(approximate='none')
      (drop1): Dropout(p=0.0, inplace=False)
      (norm): Identity()
      (fc2): Linear(in_features=3072, out_features=768, bias=True)
      (drop2): Dropout(p=0.0, inplace=False)
    )
    (ls2): Identity()
    (drop_path2): Identity()
  )
  (7): Block(
    (norm1): LayerNorm((768,), eps=1e-06, elementwise_affine=True)
    (attn): Attention(
      (qkv): Linear(in_features=768, out_features=2304, bias=True)
      (q_norm): Identity()
      (k_norm): Identity()
      (attn_drop): Dropout(p=0.0, inplace=False)
      (proj): Linear(in_features=768, out_features=768, bias=True)
      (proj_drop): Dropout(p=0.0, inplace=False)
    )
    (ls1): Identity()
    (drop_path1): Identity()
    (norm2): LayerNorm((768,), eps=1e-06, elementwise_affine=True)
    (mlp): Mlp(
      (fc1): Linear(in_features=768, out_features=3072, bias=True)
      (act): GELU(approximate='none')
      (drop1): Dropout(p=0.0, inplace=False)
      (norm): Identity()
      (fc2): Linear(in_features=3072, out_features=768, bias=True)
      (drop2): Dropout(p=0.0, inplace=False)
    )
    (ls2): Identity()
    (drop_path2): Identity()
  )
  (8): Block(
    (norm1): LayerNorm((768,), eps=1e-06, elementwise_affine=True)
    (attn): Attention(
      (qkv): Linear(in_features=768, out_features=2304, bias=True)
      (q_norm): Identity()
      (k_norm): Identity()
      (attn_drop): Dropout(p=0.0, inplace=False)
      (proj): Linear(in_features=768, out_features=768, bias=True)
      (proj_drop): Dropout(p=0.0, inplace=False)
    )
    (ls1): Identity()
    (drop_path1): Identity()
    (norm2): LayerNorm((768,), eps=1e-06, elementwise_affine=True)
    (mlp): Mlp(
      (fc1): Linear(in_features=768, out_features=3072, bias=True)
      (act): GELU(approximate='none')
      (drop1): Dropout(p=0.0, inplace=False)
      (norm): Identity()
      (fc2): Linear(in_features=3072, out_features=768, bias=True)
      (drop2): Dropout(p=0.0, inplace=False)
    )
    (ls2): Identity()
    (drop_path2): Identity()
  )
  (9): Block(
    (norm1): LayerNorm((768,), eps=1e-06, elementwise_affine=True)
    (attn): Attention(
      (qkv): Linear(in_features=768, out_features=2304, bias=True)
      (q_norm): Identity()
      (k_norm): Identity()
      (attn_drop): Dropout(p=0.0, inplace=False)
      (proj): Linear(in_features=768, out_features=768, bias=True)
      (proj_drop): Dropout(p=0.0, inplace=False)
    )
    (ls1): Identity()
    (drop_path1): Identity()
    (norm2): LayerNorm((768,), eps=1e-06, elementwise_affine=True)
    (mlp): Mlp(
      (fc1): Linear(in_features=768, out_features=3072, bias=True)
      (act): GELU(approximate='none')
      (drop1): Dropout(p=0.0, inplace=False)
      (norm): Identity()
      (fc2): Linear(in_features=3072, out_features=768, bias=True)
      (drop2): Dropout(p=0.0, inplace=False)
    )
    (ls2): Identity()
    (drop_path2): Identity()
  )
  (10): Block(
    (norm1): LayerNorm((768,), eps=1e-06, elementwise_affine=True)
    (attn): Attention(
      (qkv): Linear(in_features=768, out_features=2304, bias=True)
      (q_norm): Identity()
      (k_norm): Identity()
      (attn_drop): Dropout(p=0.0, inplace=False)
      (proj): Linear(in_features=768, out_features=768, bias=True)
      (proj_drop): Dropout(p=0.0, inplace=False)
    )
    (ls1): Identity()
    (drop_path1): Identity()
    (norm2): LayerNorm((768,), eps=1e-06, elementwise_affine=True)
    (mlp): Mlp(
      (fc1): Linear(in_features=768, out_features=3072, bias=True)
      (act): GELU(approximate='none')
      (drop1): Dropout(p=0.0, inplace=False)
      (norm): Identity()
      (fc2): Linear(in_features=3072, out_features=768, bias=True)
      (drop2): Dropout(p=0.0, inplace=False)
    )
    (ls2): Identity()
    (drop_path2): Identity()
  )
  (11): Block(
    (norm1): LayerNorm((768,), eps=1e-06, elementwise_affine=True)
    (attn): Attention(
      (qkv): Linear(in_features=768, out_features=2304, bias=True)
      (q_norm): Identity()
      (k_norm): Identity()
      (attn_drop): Dropout(p=0.0, inplace=False)
      (proj): Linear(in_features=768, out_features=768, bias=True)
      (proj_drop): Dropout(p=0.0, inplace=False)
    )
    (ls1): Identity()
    (drop_path1): Identity()
    (norm2): LayerNorm((768,), eps=1e-06, elementwise_affine=True)
    (mlp): Mlp(
      (fc1): Linear(in_features=768, out_features=3072, bias=True)
      (act): GELU(approximate='none')
      (drop1): Dropout(p=0.0, inplace=False)
      (norm): Identity()
      (fc2): Linear(in_features=3072, out_features=768, bias=True)
      (drop2): Dropout(p=0.0, inplace=False)
    )
    (ls2): Identity()
    (drop_path2): Identity()
  )
), Dropout(p=0.0, inplace=False), Identity()}
--KeyboardInterrupt--
Traceback (most recent call last):
  File "/home/bscho/works/multi-tta/main.py", line 34, in <module>
    main()
  File "/home/bscho/works/multi-tta/main.py", line 24, in main
    trainer.train()
…
