model.blocks.0.attn에 dropout 삽입! : class = Attention(
  (qkv): Linear(in_features=768, out_features=2304, bias=True)
  (q_norm): Identity()
  (k_norm): Identity()
  (attn_drop): Dropout(p=0.0, inplace=False)
  (proj): Linear(in_features=768, out_features=768, bias=True)
  (proj_drop): Dropout(p=0.0, inplace=False)
)
model.blocks.0.mlp에 dropout 삽입! : class = Mlp(
  (fc1): Linear(in_features=768, out_features=3072, bias=True)
  (act): GELU(approximate='none')
  (drop1): Dropout(p=0.0, inplace=False)
  (norm): Identity()
  (fc2): Linear(in_features=3072, out_features=768, bias=True)
  (drop2): Dropout(p=0.0, inplace=False)
)
model.blocks.1.attn에 dropout 삽입! : class = Attention(
  (qkv): Linear(in_features=768, out_features=2304, bias=True)
  (q_norm): Identity()
  (k_norm): Identity()
  (attn_drop): Dropout(p=0.0, inplace=False)
  (proj): Linear(in_features=768, out_features=768, bias=True)
  (proj_drop): Dropout(p=0.0, inplace=False)
)
model.blocks.1.mlp에 dropout 삽입! : class = Mlp(
  (fc1): Linear(in_features=768, out_features=3072, bias=True)
  (act): GELU(approximate='none')
  (drop1): Dropout(p=0.0, inplace=False)
  (norm): Identity()
  (fc2): Linear(in_features=3072, out_features=768, bias=True)
  (drop2): Dropout(p=0.0, inplace=False)
)
model.blocks.2.attn에 dropout 삽입! : class = Attention(
  (qkv): Linear(in_features=768, out_features=2304, bias=True)
  (q_norm): Identity()
  (k_norm): Identity()
  (attn_drop): Dropout(p=0.0, inplace=False)
  (proj): Linear(in_features=768, out_features=768, bias=True)
  (proj_drop): Dropout(p=0.0, inplace=False)
)
model.blocks.2.mlp에 dropout 삽입! : class = Mlp(
  (fc1): Linear(in_features=768, out_features=3072, bias=True)
  (act): GELU(approximate='none')
  (drop1): Dropout(p=0.0, inplace=False)
  (norm): Identity()
  (fc2): Linear(in_features=3072, out_features=768, bias=True)
  (drop2): Dropout(p=0.0, inplace=False)
)
model.blocks.3.attn에 dropout 삽입! : class = Attention(
  (qkv): Linear(in_features=768, out_features=2304, bias=True)
  (q_norm): Identity()
  (k_norm): Identity()
  (attn_drop): Dropout(p=0.0, inplace=False)
  (proj): Linear(in_features=768, out_features=768, bias=True)
  (proj_drop): Dropout(p=0.0, inplace=False)
)
model.blocks.3.mlp에 dropout 삽입! : class = Mlp(
  (fc1): Linear(in_features=768, out_features=3072, bias=True)
  (act): GELU(approximate='none')
  (drop1): Dropout(p=0.0, inplace=False)
  (norm): Identity()
  (fc2): Linear(in_features=3072, out_features=768, bias=True)
  (drop2): Dropout(p=0.0, inplace=False)
)
model.blocks.4.attn에 dropout 삽입! : class = Attention(
  (qkv): Linear(in_features=768, out_features=2304, bias=True)
  (q_norm): Identity()
  (k_norm): Identity()
  (attn_drop): Dropout(p=0.0, inplace=False)
  (proj): Linear(in_features=768, out_features=768, bias=True)
  (proj_drop): Dropout(p=0.0, inplace=False)
)
model.blocks.4.mlp에 dropout 삽입! : class = Mlp(
  (fc1): Linear(in_features=768, out_features=3072, bias=True)
  (act): GELU(approximate='none')
  (drop1): Dropout(p=0.0, inplace=False)
  (norm): Identity()
  (fc2): Linear(in_features=3072, out_features=768, bias=True)
  (drop2): Dropout(p=0.0, inplace=False)
)
model.blocks.5.attn에 dropout 삽입! : class = Attention(
  (qkv): Linear(in_features=768, out_features=2304, bias=True)
  (q_norm): Identity()
  (k_norm): Identity()
  (attn_drop): Dropout(p=0.0, inplace=False)
  (proj): Linear(in_features=768, out_features=768, bias=True)
  (proj_drop): Dropout(p=0.0, inplace=False)
)
model.blocks.5.mlp에 dropout 삽입! : class = Mlp(
  (fc1): Linear(in_features=768, out_features=3072, bias=True)
  (act): GELU(approximate='none')
  (drop1): Dropout(p=0.0, inplace=False)
  (norm): Identity()
  (fc2): Linear(in_features=3072, out_features=768, bias=True)
  (drop2): Dropout(p=0.0, inplace=False)
)
model.blocks.6.attn에 dropout 삽입! : class = Attention(
  (qkv): Linear(in_features=768, out_features=2304, bias=True)
  (q_norm): Identity()
  (k_norm): Identity()
  (attn_drop): Dropout(p=0.0, inplace=False)
  (proj): Linear(in_features=768, out_features=768, bias=True)
  (proj_drop): Dropout(p=0.0, inplace=False)
)
model.blocks.6.mlp에 dropout 삽입! : class = Mlp(
  (fc1): Linear(in_features=768, out_features=3072, bias=True)
  (act): GELU(approximate='none')
  (drop1): Dropout(p=0.0, inplace=False)
  (norm): Identity()
  (fc2): Linear(in_features=3072, out_features=768, bias=True)
  (drop2): Dropout(p=0.0, inplace=False)
)
model.blocks.7.attn에 dropout 삽입! : class = Attention(
  (qkv): Linear(in_features=768, out_features=2304, bias=True)
  (q_norm): Identity()
  (k_norm): Identity()
  (attn_drop): Dropout(p=0.0, inplace=False)
  (proj): Linear(in_features=768, out_features=768, bias=True)
  (proj_drop): Dropout(p=0.0, inplace=False)
)
model.blocks.7.mlp에 dropout 삽입! : class = Mlp(
  (fc1): Linear(in_features=768, out_features=3072, bias=True)
  (act): GELU(approximate='none')
  (drop1): Dropout(p=0.0, inplace=False)
  (norm): Identity()
  (fc2): Linear(in_features=3072, out_features=768, bias=True)
  (drop2): Dropout(p=0.0, inplace=False)
)
model.blocks.8.attn에 dropout 삽입! : class = Attention(
  (qkv): Linear(in_features=768, out_features=2304, bias=True)
  (q_norm): Identity()
  (k_norm): Identity()
  (attn_drop): Dropout(p=0.0, inplace=False)
  (proj): Linear(in_features=768, out_features=768, bias=True)
  (proj_drop): Dropout(p=0.0, inplace=False)
)
model.blocks.8.mlp에 dropout 삽입! : class = Mlp(
  (fc1): Linear(in_features=768, out_features=3072, bias=True)
  (act): GELU(approximate='none')
  (drop1): Dropout(p=0.0, inplace=False)
  (norm): Identity()
  (fc2): Linear(in_features=3072, out_features=768, bias=True)
  (drop2): Dropout(p=0.0, inplace=False)
)
model.blocks.9.attn에 dropout 삽입! : class = Attention(
  (qkv): Linear(in_features=768, out_features=2304, bias=True)
  (q_norm): Identity()
  (k_norm): Identity()
  (attn_drop): Dropout(p=0.0, inplace=False)
  (proj): Linear(in_features=768, out_features=768, bias=True)
  (proj_drop): Dropout(p=0.0, inplace=False)
)
model.blocks.9.mlp에 dropout 삽입! : class = Mlp(
  (fc1): Linear(in_features=768, out_features=3072, bias=True)
  (act): GELU(approximate='none')
  (drop1): Dropout(p=0.0, inplace=False)
  (norm): Identity()
  (fc2): Linear(in_features=3072, out_features=768, bias=True)
  (drop2): Dropout(p=0.0, inplace=False)
)
model.blocks.10.attn에 dropout 삽입! : class = Attention(
  (qkv): Linear(in_features=768, out_features=2304, bias=True)
  (q_norm): Identity()
  (k_norm): Identity()
  (attn_drop): Dropout(p=0.0, inplace=False)
  (proj): Linear(in_features=768, out_features=768, bias=True)
  (proj_drop): Dropout(p=0.0, inplace=False)
)
model.blocks.10.mlp에 dropout 삽입! : class = Mlp(
  (fc1): Linear(in_features=768, out_features=3072, bias=True)
  (act): GELU(approximate='none')
  (drop1): Dropout(p=0.0, inplace=False)
  (norm): Identity()
  (fc2): Linear(in_features=3072, out_features=768, bias=True)
  (drop2): Dropout(p=0.0, inplace=False)
)
model.blocks.11.attn에 dropout 삽입! : class = Attention(
  (qkv): Linear(in_features=768, out_features=2304, bias=True)
  (q_norm): Identity()
  (k_norm): Identity()
  (attn_drop): Dropout(p=0.0, inplace=False)
  (proj): Linear(in_features=768, out_features=768, bias=True)
  (proj_drop): Dropout(p=0.0, inplace=False)
)
model.blocks.11.mlp에 dropout 삽입! : class = Mlp(
  (fc1): Linear(in_features=768, out_features=3072, bias=True)
  (act): GELU(approximate='none')
  (drop1): Dropout(p=0.0, inplace=False)
  (norm): Identity()
  (fc2): Linear(in_features=3072, out_features=768, bias=True)
  (drop2): Dropout(p=0.0, inplace=False)
)
  0%|                                                                                                              | 0/3125 [02:17<?, ?it/s]
> /home/bscho/works/multi-tta/models/baseline.py(79)forward()
-> x = torch.cat((cls_token, x), dim=1)  # [B, num_patches + 1, embed_dim]
tensor([[[ 0.3238,  0.0142, -0.4355,  ...,  0.0767,  0.0283, -0.0756]],
…
