> /home/bscho/works/multi-tta/models/baseline.py(58)__init__()
-> self.fc = nn.Sequential(*list(total_model.children()))[-1]
--KeyboardInterrupt--
[PatchEmbed(
  (proj): Conv2d(3, 768, kernel_size=(16, 16), stride=(16, 16))
  (norm): Identity()
), Dropout(p=0.0, inplace=False), Identity(), Identity(), Sequential(
  (0): Block(
    (norm1): LayerNorm((768,), eps=1e-06, elementwise_affine=True)
    (attn): Attention(
      (qkv): Linear(in_features=768, out_features=2304, bias=True)
      (q_norm): Identity()
      (k_norm): Identity()
      (attn_drop): Dropout(p=0.0, inplace=False)
      (proj): Linear(in_features=768, out_features=768, bias=True)
      (proj_drop): Dropout(p=0.0, inplace=False)
    )
    (ls1): Identity()
    (drop_path1): Identity()
    (norm2): LayerNorm((768,), eps=1e-06, elementwise_affine=True)
    (mlp): Mlp(
      (fc1): Linear(in_features=768, out_features=3072, bias=True)
      (act): GELU(approximate='none')
      (drop1): Dropout(p=0.0, inplace=False)
      (norm): Identity()
      (fc2): Linear(in_features=3072, out_features=768, bias=True)
      (drop2): Dropout(p=0.0, inplace=False)
    )
    (ls2): Identity()
    (drop_path2): Identity()
  )
  (1): Block(
    (norm1): LayerNorm((768,), eps=1e-06, elementwise_affine=True)
    (attn): Attention(
      (qkv): Linear(in_features=768, out_features=2304, bias=True)
      (q_norm): Identity()
      (k_norm): Identity()
      (attn_drop): Dropout(p=0.0, inplace=False)
      (proj): Linear(in_features=768, out_features=768, bias=True)
      (proj_drop): Dropout(p=0.0, inplace=False)
    )
    (ls1): Identity()
    (drop_path1): Identity()
    (norm2): LayerNorm((768,), eps=1e-06, elementwise_affine=True)
    (mlp): Mlp(
      (fc1): Linear(in_features=768, out_features=3072, bias=True)
      (act): GELU(approximate='none')
      (drop1): Dropout(p=0.0, inplace=False)
      (norm): Identity()
      (fc2): Linear(in_features=3072, out_features=768, bias=True)
      (drop2): Dropout(p=0.0, inplace=False)
    )
    (ls2): Identity()
    (drop_path2): Identity()
  )
  (2): Block(
    (norm1): LayerNorm((768,), eps=1e-06, elementwise_affine=True)
    (attn): Attention(
      (qkv): Linear(in_features=768, out_features=2304, bias=True)
      (q_norm): Identity()
      (k_norm): Identity()
      (attn_drop): Dropout(p=0.0, inplace=False)
      (proj): Linear(in_features=768, out_features=768, bias=True)
      (proj_drop): Dropout(p=0.0, inplace=False)
    )
    (ls1): Identity()
    (drop_path1): Identity()
    (norm2): LayerNorm((768,), eps=1e-06, elementwise_affine=True)
    (mlp): Mlp(
      (fc1): Linear(in_features=768, out_features=3072, bias=True)
      (act): GELU(approximate='none')
      (drop1): Dropout(p=0.0, inplace=False)
      (norm): Identity()
      (fc2): Linear(in_features=3072, out_features=768, bias=True)
      (drop2): Dropout(p=0.0, inplace=False)
    )
    (ls2): Identity()
    (drop_path2): Identity()
  )
  (3): Block(
    (norm1): LayerNorm((768,), eps=1e-06, elementwise_affine=True)
    (attn): Attention(
      (qkv): Linear(in_features=768, out_features=2304, bias=True)
      (q_norm): Identity()
      (k_norm): Identity()
      (attn_drop): Dropout(p=0.0, inplace=False)
      (proj): Linear(in_features=768, out_features=768, bias=True)
      (proj_drop): Dropout(p=0.0, inplace=False)
    )
    (ls1): Identity()
    (drop_path1): Identity()
    (norm2): LayerNorm((768,), eps=1e-06, elementwise_affine=True)
    (mlp): Mlp(
      (fc1): Linear(in_features=768, out_features=3072, bias=True)
      (act): GELU(approximate='none')
      (drop1): Dropout(p=0.0, inplace=False)
      (norm): Identity()
      (fc2): Linear(in_features=3072, out_features=768, bias=True)
      (drop2): Dropout(p=0.0, inplace=False)
    )
    (ls2): Identity()
    (drop_path2): Identity()
  )
  (4): Block(
    (norm1): LayerNorm((768,), eps=1e-06, elementwise_affine=True)
    (attn): Attention(
      (qkv): Linear(in_features=768, out_features=2304, bias=True)
      (q_norm): Identity()
      (k_norm): Identity()
      (attn_drop): Dropout(p=0.0, inplace=False)
      (proj): Linear(in_features=768, out_features=768, bias=True)
      (proj_drop): Dropout(p=0.0, inplace=False)
    )
    (ls1): Identity()
    (drop_path1): Identity()
    (norm2): LayerNorm((768,), eps=1e-06, elementwise_affine=True)
    (mlp): Mlp(
      (fc1): Linear(in_features=768, out_features=3072, bias=True)
      (act): GELU(approximate='none')
      (drop1): Dropout(p=0.0, inplace=False)
      (norm): Identity()
      (fc2): Linear(in_features=3072, out_features=768, bias=True)
      (drop2): Dropout(p=0.0, inplace=False)
    )
    (ls2): Identity()
    (drop_path2): Identity()
  )
  (5): Block(
    (norm1): LayerNorm((768,), eps=1e-06, elementwise_affine=True)
    (attn): Attention(
      (qkv): Linear(in_features=768, out_features=2304, bias=True)
      (q_norm): Identity()
      (k_norm): Identity()
      (attn_drop): Dropout(p=0.0, inplace=False)
      (proj): Linear(in_features=768, out_features=768, bias=True)
      (proj_drop): Dropout(p=0.0, inplace=False)
    )
    (ls1): Identity()
    (drop_path1): Identity()
    (norm2): LayerNorm((768,), eps=1e-06, elementwise_affine=True)
    (mlp): Mlp(
      (fc1): Linear(in_features=768, out_features=3072, bias=True)
      (act): GELU(approximate='none')
      (drop1): Dropout(p=0.0, inplace=False)
      (norm): Identity()
      (fc2): Linear(in_features=3072, out_features=768, bias=True)
      (drop2): Dropout(p=0.0, inplace=False)
    )
    (ls2): Identity()
    (drop_path2): Identity()
  )
  (6): Block(
    (norm1): LayerNorm((768,), eps=1e-06, elementwise_affine=True)
    (attn): Attention(
      (qkv): Linear(in_features=768, out_features=2304, bias=True)
      (q_norm): Identity()
      (k_norm): Identity()
      (attn_drop): Dropout(p=0.0, inplace=False)
      (proj): Linear(in_features=768, out_features=768, bias=True)
      (proj_drop): Dropout(p=0.0, inplace=False)
    )
    (ls1): Identity()
    (drop_path1): Identity()
    (norm2): LayerNorm((768,), eps=1e-06, elementwise_affine=True)
    (mlp): Mlp(
      (fc1): Linear(in_features=768, out_features=3072, bias=True)
      (act): GELU(approximate='none')
      (drop1): Dropout(p=0.0, inplace=False)
      (norm): Identity()
      (fc2): Linear(in_features=3072, out_features=768, bias=True)
      (drop2): Dropout(p=0.0, inplace=False)
    )
    (ls2): Identity()
    (drop_path2): Identity()
  )
  (7): Block(
    (norm1): LayerNorm((768,), eps=1e-06, elementwise_affine=True)
    (attn): Attention(
      (qkv): Linear(in_features=768, out_features=2304, bias=True)
      (q_norm): Identity()
      (k_norm): Identity()
      (attn_drop): Dropout(p=0.0, inplace=False)
      (proj): Linear(in_features=768, out_features=768, bias=True)
      (proj_drop): Dropout(p=0.0, inplace=False)
    )
    (ls1): Identity()
    (drop_path1): Identity()
    (norm2): LayerNorm((768,), eps=1e-06, elementwise_affine=True)
    (mlp): Mlp(
      (fc1): Linear(in_features=768, out_features=3072, bias=True)
      (act): GELU(approximate='none')
      (drop1): Dropout(p=0.0, inplace=False)
      (norm): Identity()
      (fc2): Linear(in_features=3072, out_features=768, bias=True)
      (drop2): Dropout(p=0.0, inplace=False)
    )
    (ls2): Identity()
    (drop_path2): Identity()
  )
  (8): Block(
    (norm1): LayerNorm((768,), eps=1e-06, elementwise_affine=True)
    (attn): Attention(
      (qkv): Linear(in_features=768, out_features=2304, bias=True)
      (q_norm): Identity()
      (k_norm): Identity()
      (attn_drop): Dropout(p=0.0, inplace=False)
      (proj): Linear(in_features=768, out_features=768, bias=True)
      (proj_drop): Dropout(p=0.0, inplace=False)
    )
    (ls1): Identity()
    (drop_path1): Identity()
    (norm2): LayerNorm((768,), eps=1e-06, elementwise_affine=True)
    (mlp): Mlp(
      (fc1): Linear(in_features=768, out_features=3072, bias=True)
      (act): GELU(approximate='none')
      (drop1): Dropout(p=0.0, inplace=False)
      (norm): Identity()
      (fc2): Linear(in_features=3072, out_features=768, bias=True)
      (drop2): Dropout(p=0.0, inplace=False)
    )
    (ls2): Identity()
    (drop_path2): Identity()
  )
  (9): Block(
    (norm1): LayerNorm((768,), eps=1e-06, elementwise_affine=True)
    (attn): Attention(
      (qkv): Linear(in_features=768, out_features=2304, bias=True)
      (q_norm): Identity()
      (k_norm): Identity()
      (attn_drop): Dropout(p=0.0, inplace=False)
      (proj): Linear(in_features=768, out_features=768, bias=True)
      (proj_drop): Dropout(p=0.0, inplace=False)
    )
    (ls1): Identity()
    (drop_path1): Identity()
    (norm2): LayerNorm((768,), eps=1e-06, elementwise_affine=True)
    (mlp): Mlp(
      (fc1): Linear(in_features=768, out_features=3072, bias=True)
      (act): GELU(approximate='none')
      (drop1): Dropout(p=0.0, inplace=False)
      (norm): Identity()
      (fc2): Linear(in_features=3072, out_features=768, bias=True)
      (drop2): Dropout(p=0.0, inplace=False)
    )
    (ls2): Identity()
    (drop_path2): Identity()
  )
  (10): Block(
    (norm1): LayerNorm((768,), eps=1e-06, elementwise_affine=True)
    (attn): Attention(
      (qkv): Linear(in_features=768, out_features=2304, bias=True)
      (q_norm): Identity()
      (k_norm): Identity()
      (attn_drop): Dropout(p=0.0, inplace=False)
      (proj): Linear(in_features=768, out_features=768, bias=True)
      (proj_drop): Dropout(p=0.0, inplace=False)
    )
    (ls1): Identity()
    (drop_path1): Identity()
    (norm2): LayerNorm((768,), eps=1e-06, elementwise_affine=True)
    (mlp): Mlp(
      (fc1): Linear(in_features=768, out_features=3072, bias=True)
      (act): GELU(approximate='none')
      (drop1): Dropout(p=0.0, inplace=False)
      (norm): Identity()
      (fc2): Linear(in_features=3072, out_features=768, bias=True)
      (drop2): Dropout(p=0.0, inplace=False)
    )
    (ls2): Identity()
    (drop_path2): Identity()
  )
  (11): Block(
    (norm1): LayerNorm((768,), eps=1e-06, elementwise_affine=True)
    (attn): Attention(
      (qkv): Linear(in_features=768, out_features=2304, bias=True)
      (q_norm): Identity()
      (k_norm): Identity()
      (attn_drop): Dropout(p=0.0, inplace=False)
      (proj): Linear(in_features=768, out_features=768, bias=True)
      (proj_drop): Dropout(p=0.0, inplace=False)
    )
    (ls1): Identity()
    (drop_path1): Identity()
    (norm2): LayerNorm((768,), eps=1e-06, elementwise_affine=True)
    (mlp): Mlp(
      (fc1): Linear(in_features=768, out_features=3072, bias=True)
      (act): GELU(approximate='none')
      (drop1): Dropout(p=0.0, inplace=False)
      (norm): Identity()
      (fc2): Linear(in_features=3072, out_features=768, bias=True)
      (drop2): Dropout(p=0.0, inplace=False)
    )
    (ls2): Identity()
    (drop_path2): Identity()
  )
), LayerNorm((768,), eps=1e-06, elementwise_affine=True), Identity(), Dropout(p=0.0, inplace=False), Linear(in_features=768, out_features=1000, bias=True)]
Traceback (most recent call last):
  File "/home/bscho/works/multi-tta/main.py", line 34, in <module>
…
